reference/Model/Thai-language-model/GridSearch-model/thrnn_grid.tflite (tflite, 997564 bytes, 13 tensors)

sequential_86/simple_rnn_57/TensorArrayV2_1 f4 [1, 1, 32]
00000000: 0000 0000 0000 0000 0000 0000 0000 0000
00000010: 0000 0000 0000 0000 0000 0000 0000 0000
00000020: 0000 0000 0000 0000 0000 0000 0000 0000
00000030: 0000 0000 0000 0000 0000 0000 0000 0000
00000040: 0000 0000 0000 0000 0000 0000 0000 0000
00000050: 0000 0000 0000 0000 0000 0000 0000 0000
00000060: 0000 0000 0000 0000 0000 0000 0000 0000
00000070: 0000 0000 0000 0000 0000 0000 0000 0000
0.0 0.0 0.0 0.0 0.0 0.0 0.0 0.0
0.0 0.0 0.0 0.0 0.0 0.0 0.0 0.0
0.0 0.0 0.0 0.0 0.0 0.0 0.0 0.0
0.0 0.0 0.0 0.0 0.0 0.0 0.0 0.0

sequential_86/simple_rnn_56/TensorArrayV2_1 f4 [110, 1, 32]
00000000: 0000 0000 0000 0000 0000 0000 0000 0000
00000010: 0000 0000 0000 0000 0000 0000 0000 0000
00000020: 0000 0000 0000 0000 0000 0000 0000 0000
00000030: 0000 0000 0000 0000 0000 0000 0000 0000
00000040: 0000 0000 0000 0000 0000 0000 0000 0000
00000050: 0000 0000 0000 0000 0000 0000 0000 0000
00000060: 0000 0000 0000 0000 0000 0000 0000 0000
00000070: 0000 0000 0000 0000 0000 0000 0000 0000
00000080: 0000 0000 0000 0000 0000 0000 0000 0000
00000090: 0000 0000 0000 0000 0000 0000 0000 0000
000000a0: 0000 0000 0000 0000 0000 0000 0000 0000
000000b0: 0000 0000 0000 0000 0000 0000 0000 0000
000000c0: 0000 0000 0000 0000 0000 0000 0000 0000
000000d0: 0000 0000 0000 0000 0000 0000 0000 0000
000000e0: 0000 0000 0000 0000 0000 0000 0000 0000
000000f0: 0000 0000 0000 0000 0000 0000 0000 0000
00000100: 0000 0000 0000 0000 0000 0000 0000 0000
00000110: 0000 0000 0000 0000 0000 0000 0000 0000
00000120: 0000 0000 0000 0000 0000 0000 0000 0000
00000130: 0000 0000 0000 0000 0000 0000 0000 0000
00000140: 0000 0000 0000 0000 0000 0000 0000 0000
00000150: 0000 0000 0000 0000 0000 0000 0000 0000
00000160: 0000 0000 0000 0000 0000 0000 0000 0000
00000170: 0000 0000 0000 0000 0000 0000 0000 0000
00000180: 0000 0000 0000 0000 0000 0000 0000 0000
00000190: 0000 0000 0000 0000 0000 0000 0000 0000
000001a0: 0000 0000 0000 0000 0000 0000 0000 0000
000001b0: 0000 0000 0000 0000 0000 0000 0000 0000
000001c0: 0000 0000 0000 0000 0000 0000 0000 0000
000001d0: 0000 0000 0000 0000 0000 0000 0000 0000
000001e0: 0000 0000 0000 0000 0000 0000 0000 0000
000001f0: 0000 0000 0000 0000 0000 0000 0000 0000
00000200: 0000 0000 0000 0000 0000 0000 0000 0000
00000210: 0000 0000 0000 0000 0000 0000 0000 0000
00000220: 0000 0000 0000 0000 0000 0000 0000 0000
00000230: 0000 0000 0000 0000 0000 0000 0000 0000
00000240: 0000 0000 0000 0000 0000 0000 0000 0000
00000250: 0000 0000 0000 0000 0000 0000 0000 0000
00000260: 0000 0000 0000 0000 0000 0000 0000 0000
00000270: 0000 0000 0000 0000 0000 0000 0000 0000
00000280: 0000 0000 0000 0000 0000 0000 0000 0000
00000290: 0000 0000 0000 0000 0000 0000 0000 0000
000002a0: 0000 0000 0000 0000 0000 0000 0000 0000
000002b0: 0000 0000 0000 0000 0000 0000 0000 0000
000002c0: 0000 0000 0000 0000 0000 0000 0000 0000
000002d0: 0000 0000 0000 0000 0000 0000 0000 0000
000002e0: 0000 0000 0000 0000 0000 0000 0000 0000
000002f0: 0000 0000 0000 0000 0000 0000 0000 0000
00000300: 0000 0000 0000 0000 0000 0000 0000 0000
00000310: 0000 0000 0000 0000 0000 0000 0000 0000
00000320: 0000 0000 0000 0000 0000 0000 0000 0000
00000330: 0000 0000 0000 0000 0000 0000 0000 0000
00000340: 0000 0000 0000 0000 0000 0000 0000 0000
00000350: 0000 0000 0000 0000 0000 0000 0000 0000
00000360: 0000 0000 0000 0000 0000 0000 0000 0000
00000370: 0000 0000 0000 0000 0000 0000 0000 0000
00000380: 0000 0000 0000 0000 0000 0000 0000 0000
00000390: 0000 0000 0000 0000 0000 0000 0000 0000
000003a0: 0000 0000 0000 0000 0000 0000 0000 0000
000003b0: 0000 0000 0000 0000 0000 0000 0000 0000
000003c0: 0000 0000 0000 0000 0000 0000 0000 0000
000003d0: 0000 0000 0000 0000 0000 0000 0000 0000
000003e0: 0000 0000 0000 0000 0000 0000 0000 0000
000003f0: 0000 0000 0000 0000 0000 0000 0000 0000
0.0 0.0 0.0 0.0 0.0 0.0 0.0 0.0
0.0 0.0 0.0 0.0 0.0 0.0 0.0 0.0
0.0 0.0 0.0 0.0 0.0 0.0 0.0 0.0
0.0 0.0 0.0 0.0 0.0 0.0 0.0 0.0
0.0 0.0 0.0 0.0 0.0 0.0 0.0 0.0
0.0 0.0 0.0 0.0 0.0 0.0 0.0 0.0
0.0 0.0 0.0 0.0 0.0 0.0 0.0 0.0
0.0 0.0 0.0 0.0 0.0 0.0 0.0 0.0
0.0 0.0 0.0 0.0 0.0 0.0 0.0 0.0
0.0 0.0 0.0 0.0 0.0 0.0 0.0 0.0
0.0 0.0 0.0 0.0 0.0 0.0 0.0 0.0
0.0 0.0 0.0 0.0 0.0 0.0 0.0 0.0
0.0 0.0 0.0 0.0 0.0 0.0 0.0 0.0
0.0 0.0 0.0 0.0 0.0 0.0 0.0 0.0
0.0 0.0 0.0 0.0 0.0 0.0 0.0 0.0
0.0 0.0 0.0 0.0 0.0 0.0 0.0 0.0
0.0 0.0 0.0 0.0 0.0 0.0 0.0 0.0
0.0 0.0 0.0 0.0 0.0 0.0 0.0 0.0
0.0 0.0 0.0 0.0 0.0 0.0 0.0 0.0
0.0 0.0 0.0 0.0 0.0 0.0 0.0 0.0
0.0 0.0 0.0 0.0 0.0 0.0 0.0 0.0
0.0 0.0 0.0 0.0 0.0 0.0 0.0 0.0
0.0 0.0 0.0 0.0 0.0 0.0 0.0 0.0
0.0 0.0 0.0 0.0 0.0 0.0 0.0 0.0
0.0 0.0 0.0 0.0 0.0 0.0 0.0 0.0
0.0 0.0 0.0 0.0 0.0 0.0 0.0 0.0
0.0 0.0 0.0 0.0 0.0 0.0 0.0 0.0
0.0 0.0 0.0 0.0 0.0 0.0 0.0 0.0
0.0 0.0 0.0 0.0 0.0 0.0 0.0 0.0
0.0 0.0 0.0 0.0 0.0 0.0 0.0 0.0
0.0 0.0 0.0 0.0 0.0 0.0 0.0 0.0
0.0 0.0 0.0 0.0 0.0 0.0 0.0 0.0

sequential_86/embedding_86/embedding_lookup f4 [2135, 110]
00000000: d7cd 4b3d c4a9 3b3d 5ac4 c5bc 8bf3 bcbc
00000010: 170a 8e3c f9ff 643c e9ee 00bd 7e84 a13c
00000020: a17f 87bc a4c3 6cbc 5023 3ebc f704 aabc
00000030: aad5 27bd 86ee c3bc 0a4a 41bd 3ad0 473c
00000040: cdad 70bd 7b94 0e3d 9d81 c93c 2c50 b9bb
00000050: ba87 2f3c b07e 133c ace1 213d 56b6 473c
00000060: 44e5 eabc fa9e 7bbc 03d0 a4bc 0330 2f3d
00000070: 50c5 ccbb ca18 8fbc 2a36 09bd a022 96bb
00000080: 386f afbc d739 8f3c 4f2b 2dbb 63fc d5bc
00000090: 1e63 1bbd 0f17 adbc c23e cdbb 75f9 8238
000000a0: 26e7 323d 5491 21bb cc13 f5bc e216 0bbd
000000b0: eaa1 333d 121b ddbc a7e1 a0bc 2340 4abd
000000c0: f43c 523d be8a 9d3c 67cb 3dba 89bc 26bd
000000d0: def1 a13c 8bbc 1a3d f921 5bbc 029c ff3c
000000e0: 295e 6a3a 190e f13b c815 493d 5e34 3c3c
000000f0: 12ae f83c efbb 4a3d 6870 18bc 7c50 c8bb
00000100: cb1d 28bd f774 8f3b 2b1b 4abc 3601 953b
00000110: 3e3a 163d 4044 bc36 7bfc c1bc 48a2 20bc
00000120: 0a76 453d eed7 26bc bcbd cdbc d487 5bbd
00000130: b810 e2bc fac6 27bd ac5d f23c ba8e 953c
00000140: e0cc b0bb a106 db3c e436 053c f733 10bd
00000150: 0404 12bd 3d18 3a3c 974c 70bc 7734 913c
00000160: 2621 eabc 50d1 77bd a325 5f3b 0482 fabb
00000170: f7f2 adbb c8ef 0a3d c7a2 a0bc bac0 b3bc
00000180: 1841 04bd 44f9 593a 47d4 343d 395c 0ebc
00000190: ff47 21bc 757a fb3c 0884 41bc bdb2 c5bc
000001a0: e933 4b3c 1406 e63c a2a5 1fbc 3c78 07bd
000001b0: 5065 00bd 2104 1abc 5f19 d33c 73bf 71bb
000001c0: 69ef fcbc dfe1 d7bc 8732 db3c 2c49 2fbd
000001d0: 644a 9c3c eb27 813b c540 bc3c d891 f6bb
000001e0: 7ff4 30bc 9f7a 1abd ce17 40bd 1ea4 653d
000001f0: d0aa 353d 442c 19bc d8ff c53c cf41 f93c
00000200: e0b0 35bd 009a b63a 7801 223d e2c4 bcbc
00000210: 59f2 48bd f7ed 903c 574e 3d3c f71e 103c
00000220: db6b 74bd 56aa 78bc c831 193d b237 113c
00000230: 5574 69bd e2be d1bc 0aea 203d 4145 9f3c
00000240: 4b30 a8bb b060 ccbc 4106 3b3d 8906 29ba
00000250: ffbb 1bbd 9f64 2d3d 089d 8bbc 88c5 f6bc
00000260: 1fba 0abc 12a7 05bb c000 43bb d6e8 603c
00000270: 028a d7bb 2e12 f6bc cd49 8dbc f223 05bd
00000280: 7ed4 093d af8e 6abc 48ec a4bc 46c0 1cbd
00000290: a2d2 64bd 0c46 b93c fce4 8f3c 8930 e9bc
000002a0: 4b9e eabc e27b 17bb fca5 f83a 9096 063d
000002b0: 3c79 d43c 45ae a6bb caf2 153d 2244 a53c
000002c0: 1dc9 c2ba dd9b 573d 0a2a 53bd 3093 53bd
000002d0: acd1 da3b 384f 54bd f8e1 3e3d 772f 043d
000002e0: c2e5 343d 6131 2c3d c27f 833c d659 5bbc
000002f0: ecfa 89bd 14e3 98bc 3ab2 d83c f141 103d
00000300: 9766 e4bc 7b2a f0bc 8df3 4d3d 90fb c8bc
00000310: 0342 afbc cd29 f4bc 8dc0 5fbd e420 9ebb
00000320: fb69 293d d91c 323d 167f 2cbc eddd 0f3b
00000330: b5c9 f43c f77a 9fbc 68a5 113c d00f 95bb
00000340: 06d7 25bd d33d 84bc 130a 9d3c 9207 1f3b
00000350: dcde 89bb 0f7f 87bc 40e3 633b 345f 5d3d
00000360: be26 943c 9f7b 16bc c32c 81bc 8695 063d
00000370: 6228 4cbd ecd4 40bd 3d0d 843c bd91 e9bc
00000380: 2020 2ebc a780 173b a5c4 d2bc 718e f4bb
00000390: 7e7c 4cbc db39 8dbd 6275 153d a478 203d
000003a0: db99 dd3c f695 e73c 571f 373d dd48 4cbd
000003b0: 40f6 ca3c 81c6 a13c fdce 013d 1bbf a33c
000003c0: ac92 b53c 0969 643b 1c08 eebc 5253 213d
000003d0: 9aa9 f5bc a36a 4e3b 3450 06bc e131 1a3d
000003e0: 5226 89bc d6d5 a63c de45 cf3c d63d 28bc
000003f0: c490 e23c f335 343c b2d8 e5bc 55fa d73c
0.04975685 0.045816198 -0.02414148 -0.02306535 0.017338796 0.013977044 -0.031477842 0.019716498
-0.01654035 -0.014450941 -0.011605099 -0.02075432 -0.04097525 -0.023917448 -0.04718975 0.012195641
-0.0587595 0.03480957 0.024597937 -0.005655309 0.010713512 0.009002373 0.039521858 0.012189468
-0.028673775 -0.015357727 -0.020118719 0.042770397 -0.0062491074 -0.017467875 -0.03349892 -0.0045817643
-0.021415338 0.017483635 -0.002642352 -0.026121324 -0.037936322 -0.02112916 -0.006263585 6.245348e-05
0.04367747 -0.0024653273 -0.029916666 -0.03395737 0.043855585 -0.026990447 -0.01963885 -0.04937757
0.05132766 0.019231196 -0.0007240087 -0.040707145 0.019768652 0.037777465 -0.013374799 0.03120232
0.00089404226 0.007356417 0.049093038 0.011487095 0.03035644 0.049495634 -0.0093041435 -0.00611311
-0.041044038 0.004377957 -0.012335579 0.0045472635 0.036676638 5.610782e-06 -0.023679962 -0.009804316
0.048208274 -0.010183318 -0.025114886 -0.053596333 -0.027595863 -0.040961243 0.029585682 0.018256534
-0.0053955168 0.02673656 0.008130763 -0.035205808 -0.03564836 0.011358318 -0.014666698 0.017725212
-0.02858026 -0.06050235 0.0034049533 -0.0076448936 -0.0053085047 0.03392008 -0.019608868 -0.021942485
-0.03228864 0.00083150365 0.044147756 -0.00868898 -0.009843825 0.03069804 -0.011811264 -0.02413308
0.012402513 0.02807907 -0.00974408 -0.03307365 -0.03134662 -0.0094003985 0.025768934 -0.0036887794
-0.030875878 -0.02635282 0.026757492 -0.04279439 0.019078441 0.003941526 0.022980103 -0.00752471
-0.01080048 -0.037714597 -0.046897702 0.056064717 0.044352353 -0.009348933 0.024169847 0.030426888
-0.044358134 0.0013931394 0.039552182 -0.0230431 -0.049059246 0.017691595 0.011554322 0.008796445
-0.05967317 -0.01517733 0.03740099 0.008863376 -0.05699571 -0.025603715 0.039285697 0.019442203
-0.00513271 -0.024948448 0.04566026 -0.0006447812 -0.038021084 0.042332288 -0.017042652 -0.030123487
-0.008467226 -0.002039377 -0.0029755086 0.013727387 -0.006577731 -0.030037966 -0.017247105 -0.032504983
0.033649914 -0.014316245 -0.020132199 -0.038269304 -0.055864938 0.022616409 0.017565243 -0.028465526
-0.028639933 -0.0023114611 0.0018970366 0.03285843 0.025936715 -0.0050866925 0.036608495 0.02017409
-0.0014860962 0.052638877 -0.051553763 -0.05165404 0.006677827 -0.05183336 0.04660222 0.03227183
0.044164427 0.04203928 0.01605213 -0.013388118 -0.06737313 -0.018662967 0.026452173 0.035219137
-0.02788095 -0.029317131 0.050281096 -0.024534017 -0.021393782 -0.029805088 -0.05462699 -0.004825698
0.041360836 0.043484543 -0.0105283465 0.0021952346 0.029881338 -0.019467814 0.008889534 -0.004549004
-0.040488265 -0.016142761 0.019169843 0.0024265987 -0.004207475 -0.016540078 0.0034772903 0.05404587
0.01808488 -0.009184747 -0.015768414 0.03285744 -0.0498432 -0.047078058 0.016119594 -0.028511876
-0.010627776 0.0023117454 -0.025728533 -0.0074632694 -0.012480853 -0.06895801 0.036488898 0.039177552
0.027050903 0.02826975 0.044707622 -0.049874175 0.024775624 0.019747974 0.03169154 0.019988587
0.022164665 0.0034852645 -0.029056601 0.0393861 -0.029988099 0.0031496666 -0.008197833 0.037645224
-0.016741905 0.020365637 0.02530187 -0.010268649 0.02765692 0.010999191 -0.02805743 0.026364485

sequential_86/dense_172/BiasAdd/ReadVariableOp f4 [32]
00000000: ab77 bebc 7a52 b93c 2f99 313d 8ab8 a4bc
00000010: 9abf 39bc a0a6 413c b5c7 cf3b 6539 6f3d
00000020: 12b9 2ebd 8a0c c03c 5da0 9e3d e763 2ebd
00000030: fda9 4d3c d3ea 7b3a 83b6 f83c 9eed a23b
00000040: 2504 f13c 0424 c63c 0460 073d 07cb 633d
00000050: a395 34bb b537 2a3c 5ec3 adbc 14c5 593c
00000060: f3ed 823c 3094 fcba d00d 0ebd 8866 e5bb
00000070: d366 123c c13b 07bc 8076 023d 1e1a cfbc
-0.023250422 0.022622336 0.043358978 -0.020107526 -0.011337185 0.011819512 0.0063409456 0.058404345
-0.042656966 0.02344348 0.077454306 -0.042575743 0.012552735 0.00096098817 0.030360466 0.004972174
0.029420922 0.024187095 0.033050552 0.055613544 -0.002755501 0.010389258 -0.021211322 0.013291616
0.015982604 -0.0019270238 -0.03468114 -0.007000748 0.008935648 -0.008253993 0.03185129 -0.025281008

sequential_86/simple_rnn_56/zeros f4 [1, 32]
00000000: 0000 0000 0000 0000 0000 0000 0000 0000
00000010: 0000 0000 0000 0000 0000 0000 0000 0000
00000020: 0000 0000 0000 0000 0000 0000 0000 0000
00000030: 0000 0000 0000 0000 0000 0000 0000 0000
00000040: 0000 0000 0000 0000 0000 0000 0000 0000
00000050: 0000 0000 0000 0000 0000 0000 0000 0000
00000060: 0000 0000 0000 0000 0000 0000 0000 0000
00000070: 0000 0000 0000 0000 0000 0000 0000 0000
0.0 0.0 0.0 0.0 0.0 0.0 0.0 0.0
0.0 0.0 0.0 0.0 0.0 0.0 0.0 0.0
0.0 0.0 0.0 0.0 0.0 0.0 0.0 0.0
0.0 0.0 0.0 0.0 0.0 0.0 0.0 0.0

sequential_86/dense_172/MatMul f4 [32, 32]
00000000: 0d07 b03d 676c 8abe cbb4 853e 6f32 a13e
00000010: a984 c83d 261d f43c 0cb8 7ebd 94f7 483d
00000020: 7ac9 6f3e 7ed8 5cbe 8396 b13d 9e7c d2bd
00000030: 975f 463e a3e3 efbc 57a1 c7bd 1d08 653d
00000040: b29d 0ebe a672 6dbe 02d9 ec3d e9d1 adbd
00000050: 7479 7f3e aff4 473d 6d1a bd3d 5681 5d3e
00000060: 2d71 a13e 5975 723d e2ec 253e 24d4 c03d
00000070: de4c 963e 7f83 5d3d 55af cfbd 0aa2 583e
00000080: af51 1dbc 7354 e5bd 3a6a 3bbe 8890 673e
00000090: 55c2 56be ca10 8abe f825 15be 2b2d 1ebe
000000a0: 7e7a 3c3e 2651 4fbe d4a8 a2be 2653 7dbd
000000b0: feca 9bba f1a7 98bd 976d 3ebd e7ef bc3a
000000c0: ea0c 72be 6507 693e 7cf8 79be b80d 06be
000000d0: af79 1e3e 86cb 813e 6103 6b3e 19fc 7c3e
000000e0: 80f3 723e c2fa 4bbe c0e2 2e3e ab2b 2f3d
000000f0: f0f1 933e 5aaf 363e 371b ccbc ef5d 62bd
00000100: 7375 03be d7ec 84bd 25d0 79be 2f78 5ebe
00000110: 385b 80bc b5bd 60be 2e76 34bd 2998 5d3e
00000120: 2449 603e 1e3c 3a3e b574 043e 711b c9bd
00000130: 5422 e33c 02f6 59be e9c8 4f3e da22 5fbe
00000140: 3fbc 88bd d2c8 8fbe db55 07bd ce91 973e
00000150: aa1b 963e 2d92 81be 24f0 8c3e d8ba a2be
00000160: 7b68 fa3c 8dc4 60be bd28 8fbe dfda 06be
00000170: ef62 653e 216d 453e d8f8 023e 2248 123d
00000180: cb3b 04bd bbf9 613e c47f 473e d7ce afbd
00000190: 43f7 f9bd f8fe 96be c6d1 5bbe b929 53be
000001a0: 7ef0 643e 69c8 453e e0df 573e b247 2c3e
000001b0: 58a3 f03d cba5 a23b e115 fa3d 6a76 193e
000001c0: 01f8 753e 7618 833e 3c4f 363c dc43 a2be
000001d0: de2f 27be e840 bcbd 7d74 acbe 65ce 44bd
000001e0: c84e 70bd 1b65 94be 8e8e f1bd b275 8abe
000001f0: 4b74 093e 0fcd 85be c6a9 b5bd 3d52 fb3b
00000200: 9210 8b3e 50f3 eb3d 451e d33d 4072 38be
00000210: 702b 63be bcfc 623e 5133 9cbe 5de4 17be
00000220: af3d 46be 238c 36bc cbb1 9fbe 62ae 903e
00000230: d3e3 2dbe d0b1 033e fa6d c2bd 4138 81be
00000240: f0fd 823e d0a7 c0bd 7cb5 233e efda 8d3d
00000250: c6db 39bd df33 653e 12f1 96be 7e19 e63d
00000260: 465e 743e 26e8 b2bd f38f 033e 3944 39be
00000270: 613f d63c fd00 82be 1603 92be 45f8 613e
00000280: bd88 cbbd 12b8 5f3e b65b 403d 0467 4f3d
00000290: 5fe6 8dbe edbf 803e 314a 853e 761d b43e
000002a0: e0c9 c73d 97b6 243e a567 09be 6c91 e1bd
000002b0: bad5 f33d 4d2b d03d e5af 7fbe 4026 a13e
000002c0: 0907 c6bd 6c33 8dbc add3 cebd 4dd9 5f3e
000002d0: f056 003e c91c 8c3d c0fc 69be 7b4e 483d
000002e0: cd0f 0c3e a790 51be c0e0 09bd 4c43 873d
000002f0: f364 a2be aa1e 55be 0754 3cbc 7c09 26be
00000300: 3417 903c 5ecd 63be 1eed 3a3e 2d20 5d3d
00000310: fbbc 54be cfd3 183e 621c 623c 70bc b8bd
00000320: 952c a1bd a9dc 1fbe 66cc d3bd b34c b53c
00000330: 5d41 f7bd 50a5 893e 9376 6f3e f743 933d
00000340: 8030 52be 5e04 ed3b 2bc2 7f3e 2cc5 573e
00000350: 0daf 043c fc99 65bd 6688 a73d 8c09 413e
00000360: a5e5 643e bea8 4a3c 323b 25be 949b 6d3b
00000370: 0fa0 453e 2748 19be a99a 52be 569d fabd
00000380: 1ab4 883d dc6d c3bb f08b 35bd 858f 443e
00000390: 77ae 47bd 1837 843e b3c8 a13d f700 7c3e
000003a0: f6ff e0bd 1957 28be cd42 f6bd 9e03 05be
000003b0: e7a0 1abe 3491 fabd ee9e 793e 6559 253e
000003c0: 0e71 95be 766c a5be 96dd b43e 62b1 3cbe
000003d0: d533 6bbd 4457 1dbe 5421 fcbd 39c9 1cbe
000003e0: 8e4b 36bd 4bd3 5abe fcbf c8bd 9c07 b3bd
000003f0: 5e41 27be 4d5c 9dbe 3906 b33e e6aa e23c
0.08595095 -0.2703583 0.26114497 0.3148379 0.09790928 0.029799055 -0.06218724 0.049064234
0.23416701 -0.2156696 0.08671286 -0.10277675 0.19372402 -0.02928335 -0.0974757 0.05591594
-0.13927343 -0.23188266 0.115648285 -0.08487303 0.24948674 0.048817333 0.09233556 0.21631369
0.3153166 0.059193943 0.16203645 0.094154626 0.2935552 0.054080483 -0.10140864 0.21155563
-0.009601994 -0.11197748 -0.18302241 0.22613728 -0.2097257 -0.26965934 -0.14565265 -0.15446918
0.18406102 -0.202458 -0.3176943 -0.061846875 -0.0011886058 -0.07453907 -0.04649123 0.0014414758
-0.23637739 0.22756727 -0.24411196 -0.13091171 0.15476106 0.2535059 0.22950508 0.24705543
0.237257 -0.19919875 0.17078686 0.042766254 0.2889552 0.17840329 -0.02491532 -0.055265363
-0.12837772 -0.06490486 -0.24395807 -0.21725534 -0.015668496 -0.21947367 -0.044058017 0.21640076
0.21902901 0.18186995 0.12935145 -0.09819687 0.02772633 -0.21285251 0.20291485 -0.21790639
-0.0667653 -0.280829 -0.033040863 0.29603428 0.2931798 -0.25306836 0.27526963 -0.31783175
0.030567398 -0.21949978 -0.27960768 -0.1316943 0.22401021 0.1927991 0.12790239 0.035713322
-0.032283586 0.22067921 0.19482332 -0.085843734 -0.122053646 -0.294914 -0.21466741 -0.20621385
0.22357365 0.19314732 0.21081495 0.16824225 0.11749905 0.0049636117 0.12211204 0.14986578
0.24020387 0.256046 0.011127289 -0.31692398 -0.16326854 -0.091920674 -0.33682624 -0.048048396
-0.05866888 -0.28983387 -0.11794768 -0.2704292 0.13423268 -0.2613301 -0.08870272 0.0076697157
0.2716108 0.115210176 0.10308508 -0.18012333 -0.22184539 0.22166723 -0.305079 -0.14833207
-0.19359468 -0.01114181 -0.31190333 0.28258044 -0.1698144 0.12860799 -0.094936326 -0.2523823
0.25584364 -0.09407008 0.159872 0.06926524 -0.045375608 0.22383069 -0.29480797 0.11235331
0.23864087 -0.08735685 0.12847881 -0.18092431 0.026153268 -0.2539138 -0.2851798 0.22067364
-0.0993819 0.21847561 0.046962462 0.050635353 -0.27714822 0.25146428 0.26033166 0.35178727
0.097553015 0.16085277 -0.13418444 -0.11014065 0.119059995 0.10164509 -0.24969442 0.31474495
-0.096693106 -0.017236434 -0.10098968 0.21860237 0.12533164 0.06841428 -0.22850323 0.04890297
0.13677903 -0.20465337 -0.033661604 0.06604633 -0.31717643 -0.20812479 -0.011494643 -0.16214556
0.01758919 -0.2224631 0.18254516 0.053985763 -0.20775215 0.14924549 0.013800712 -0.090203166
-0.078698315 -0.15611519 -0.1034172 0.0221313 -0.12073014 0.26883936 0.23385076 0.07190698
-0.20526314 0.0072331866 0.24976413 0.21071309 0.008098376 -0.056055054 0.08180313 0.18851298
0.22353227 0.012369333 -0.16135862 0.0036256062 0.19299339 -0.1496893 -0.2056681 -0.12237041
0.06674977 -0.005964024 -0.044322908 0.19195373 -0.048750367 0.25823283 0.078996085 0.24609743
-0.10986321 -0.16439475 -0.1202446 -0.12989661 -0.15100442 -0.122347265 0.24377033 0.16147383
-0.29187816 -0.32309312 0.35325307 -0.18427041 -0.057422478 -0.1536532 -0.12311044 -0.15311135
-0.04450565 -0.21369664 -0.09802243 -0.08741686 -0.1633353 -0.30734482 0.34965685 0.027669381

sequential_86/dense_173/MatMul f4 [1, 32]
00000000: cc72 82be a518 4cbe ea11 973e 48b1 b9be
00000010: ebf6 d3be 4f61 4d3e a648 a13e 9168 853d
00000020: 73e5 c0be 6e4f 96be fb13 323e f597 36be
00000030: 4a57 88be c940 4abe 4926 edbd a953 fa3d
00000040: 50f9 bc3e a512 783d 176f b93e b9e4 6d3e
00000050: a4b1 8b3c 4376 2cbe 496a f6bc ffc6 10be
00000060: c7f3 d6be 99c5 1fbe f78b 23bd 2104 2a3e
00000070: a296 f6bd 2ff6 8c3e 6102 373e 5c04 ffbd
-0.25478208 -0.19931276 0.29505855 -0.36268067 -0.4139932 0.20056652 0.3150074 0.06514085
-0.37675056 -0.29357475 0.17390434 -0.17831405 -0.26629096 -0.19751276 -0.11579568 0.12222988
0.3690896 0.060564656 0.36217567 0.23231782 0.01705248 -0.16841988 -0.030079978 -0.14138411
-0.41982862 -0.15602721 -0.039928403 0.16603138 -0.1204045 0.27531573 0.17872001 -0.12452003

sequential_86/simple_rnn_56/while/simple_rnn_cell/BiasAdd/ReadVariableOp f4 [32]
00000000: dc6d 933b 82de e1bb 326a bebb 8543 34bc
00000010: 0fcd d43b 7141 0bbc 5c34 e53b 4cc5 973b
00000020: a178 6db9 fda5 fb3a 6c8d 173c 4efe 22bc
00000030: f7d4 fa3b 6460 143c d0b9 6dbc f5bc b3bb
00000040: cfb6 453c 5c2d a33a 044a 493a 00c6 f239
00000050: 85c8 17bc cc81 1c3c e47f ccbb 1d0b 833b
00000060: 1b7d 1dbb 90b3 bdb7 9d25 48bc 9734 253b
00000070: 9d78 593c 2aed b83b e72f 4abc 9305 6fbb
0.0044991802 -0.00689298 -0.0058109993 -0.011002426 0.0064941715 -0.008499489 0.006994767 0.004631674
-0.00022647019 0.0019199249 0.009250026 -0.009948326 0.007654782 0.009056184 -0.014509633 -0.005485172
0.012067511 0.0012449431 0.00076785707 0.00046305358 -0.009264116 0.00955243 -0.0062408317 0.0039991275
-0.0024030867 -2.2614171e-05 -0.012215999 0.0025208348 0.013273385 0.0056435065 -0.012340522 -0.0036471828

sequential_86/simple_rnn_56/while/simple_rnn_cell/MatMul_11 f4 [32, 32]
00000000: 0e2e dd3b 0847 0bbe c8b2 28bd b873 e2bd
00000010: a5c0 173e 928d 21be 0afa 593e 5de4 6c3e
00000020: a68a 33bd 1888 2bbc 3b71 bfbd 9441 413c
00000030: 5924 103d 0c54 db3d ee98 403e 2b6f fabd
00000040: 6c7d b33d 1f87 44be 9adb b43e fe6d 30be
00000050: d08c 32be e78b 793e a92b 7f3d 2788 8bbe
00000060: 369a eebe 285b 9fbc 20dd 6e3e 7ddf 84bd
00000070: 4318 3d3e 8f4b a13d 33c8 23be dd30 a5bc
00000080: 1bc6 d33c db8d 00be 8b24 21be b6d1 7c3d
00000090: 30c3 183d 295f d53d 5c8b e8bc 29c2 9dbd
000000a0: a9b1 61be d87d 69bb 8749 9bbe 2066 05bf
000000b0: def2 9b3e a431 24bd 03fd 1a3d 0d0f c23d
000000c0: 3db7 a53d 215d 4a3e 59ca 853e bd95 e5bb
000000d0: af12 5e3e f786 86be 0212 99bd 7eb9 6dbd
000000e0: 4476 e8bd bc65 293b 5799 aebd 766b 823e
000000f0: fdbe dfbd 7344 893d ba3f 15be 53d9 dcbd
00000100: 149f 65be 388d 37be e889 cbbd 5423 e6bd
00000110: 09a4 d8be edb3 0bbd d3f4 a8ba 6196 4abd
00000120: a881 c3bd 4196 1ebe 212b 1a3d f88d 583d
00000130: 3013 0d3d ed92 28be 4966 a0bd 5b5f b43d
00000140: 14f2 663e 1049 303e ca91 29be 9cbd 7d3e
00000150: 2785 4ebd 3fd4 0d3e b9ce b2be 6ca5 b3be
00000160: a22d acbd d3a7 51be eb03 53bd 0281 20be
00000170: 2799 c23d 7b21 21be c6d6 51be 89f4 623c
00000180: 4c5b 8a3e b0d1 ac3e dce1 b13d 84dd 08bc
00000190: d925 cbbe 16c0 dcbd 0bdc 0dbe d719 153b
000001a0: 40a3 e7be 0d2e 583d a31d c4bd 684d 61be
000001b0: b215 93bd 96a3 293e 890a 493e 1221 dd3d
000001c0: dbbd 30be 3554 abbc 7898 6bbd 38b7 ae3d
000001d0: 685b 97be b57f 61bd a8fd e6bd 0ba0 6b3d
000001e0: 3125 babd 0a88 8d3d e086 013e 3c6a 23be
000001f0: dafc e13d 5b8f df3d 7f70 1f3e 68dd d03c
00000200: cc15 fc3d 9805 c5bb c40f c6be 7e22 3fbc
00000210: e82a 123e 4d4e 143e 622c 253e e0a2 0dbe
00000220: adf3 12be 048c 76be 1492 2d3e 520a 05be
00000230: 1136 45bd da60 50bc 1247 0a3e 29a3 c3bd
00000240: 2627 eebd b98a 723d f457 ac3d 6eaa 723e
00000250: d7e5 923d e2e8 573e 8980 d93d 10cb 8d3e
00000260: 9937 343d 85c1 9abd 7fc0 83be 493a d4be
00000270: d533 f53d 8210 403d 36f0 aabd a057 903c
00000280: 7dd4 faba fcab 323e a108 af3c 7099 7cbe
00000290: fad6 cebd 5afe 8d3d aa83 7d3e ce88 223e
000002a0: 6e5c ac3d eb0f a83e 02f5 2dbe 3eac f03d
000002b0: 31c3 ecbd 9c97 18bc 017d 053c c1ee b9bc
000002c0: ecc0 bdbd f545 a6bd 4db1 8f3e 4f66 f23e
000002d0: a88d 9e3e 1249 30bd 60fc 50bd 123f 30bd
000002e0: e239 0f3d 23e6 833d e2d8 ad3d c3ae 08be
000002f0: 24ca 2ebe f847 5bbe 9791 1d3c aa95 5cbe
00000300: 0561 233e 6308 1b3e a3fc 0dbe c468 b4bd
00000310: 76d3 e2bc 120b 82be f0e1 14bd 83d8 693e
00000320: 0760 553e 9201 68bd c979 373e eca2 abbd
00000330: 3eb4 303c 2d14 df3d a075 4abe 0b89 273e
00000340: 6a55 ac3e a545 25be 7399 29be a681 d73d
00000350: 0561 bd3d 1f1a 12be 0b8f 93bd 9c4a 693d
00000360: c36b 15be 0a30 54bd a48b 81bd 3b15 b6bd
00000370: 04c7 47be c572 043f 2017 aebd 0171 95be
00000380: 236e b1be dde6 403e 5b99 9fbd 3250 223e
00000390: 5523 223b b18b aa3d 0332 5b3e 8e9c 5a3d
000003a0: a583 333c f1c5 4b3e 4b88 473e d9f2 9bbe
000003b0: 3230 c63d 8d57 27be 30d5 ac3d 98e3 39be
000003c0: a4d0 aebc 8b65 8d3c 2dad e2be b490 ee3d
000003d0: 3e43 033e 5564 1e3e c993 5d3d 9f21 f93d
000003e0: fd41 7ebe 0046 583d 8b44 b53e 2821 173e
000003f0: 8608 683d 8a68 5d3c 280a bf3b a397 14bb
0.006749875 -0.13601315 -0.041186124 -0.11057228 0.14819582 -0.15776661 0.21286789 0.23133989
-0.043833397 -0.010469459 -0.09347769 0.01179542 0.035190914 0.1070939 0.18808338 -0.12228235
0.08764157 -0.1919217 0.35323793 -0.17229459 -0.17436528 0.24369775 0.062297497 -0.27252313
-0.4660203 -0.019452646 0.2332654 -0.064879395 0.18466286 0.0787574 -0.15994339 -0.020164901
0.0258513 -0.12554114 -0.15736596 0.061723433 0.03729552 0.10418541 -0.028386764 -0.07703049
-0.22040428 -0.0035627987 -0.30329534 -0.52108955 0.3045873 -0.040086403 0.037838947 0.09475527
0.080915906 0.19762088 0.26130942 -0.0070063756 0.21686815 -0.26274845 -0.07474138 -0.058038227
-0.113506824 0.0025847992 -0.08525341 0.2547261 -0.109251 0.06702509 -0.14575091 -0.10783639
-0.22423965 -0.17924964 -0.09938413 -0.11237207 -0.4231265 -0.034107137 -0.0012890346 -0.04945982
-0.09546214 -0.15487005 0.037638787 0.052869767 0.034442127 -0.16462298 -0.07832009 0.0880725
0.22553283 0.17215371 -0.1655952 0.24779361 -0.050419953 0.13850497 -0.34923342 -0.35087144
-0.08407141 -0.20474176 -0.05151741 -0.15674213 0.09501868 -0.15735428 -0.20492086 0.013852247
0.2702278 0.3375373 0.086856574 -0.008353595 -0.39677313 -0.10778825 -0.13853471 0.0022750997
-0.45241737 0.052778292 -0.09575965 -0.22002184 -0.071818724 0.1656631 0.19632925 0.10797323
-0.17259924 -0.020914176 -0.057518452 0.0853104 -0.29561925 -0.05505343 -0.1127885 0.057525676
-0.09089125 0.06910713 0.12649107 -0.15958494 0.11034556 0.10916015 0.15570258 0.0254962
0.12308845 -0.0060126297 -0.38683903 -0.011665938 0.1427418 0.14482994 0.16130212 -0.13831663
-0.14350767 -0.24076849 0.16950256 -0.12992218 -0.048147265 -0.012718404 0.13503674 -0.09552605
-0.11628561 0.059214327 0.08415213 0.23697826 0.07172745 0.21084931 0.10620219 0.27693987
0.043998335 -0.07556442 -0.257328 -0.41450718 0.11972777 0.046890743 -0.08346598 0.017619908
-0.0019136813 0.1744842 0.02136642 -0.24667907 -0.10099597 0.06933279 0.24757257 0.158725
0.08416067 0.32824644 -0.16987994 0.117516026 -0.11560667 -0.00931349 0.008147479 -0.022696855
-0.092653126 -0.08118812 0.28064957 0.4734368 0.3096745 -0.043038435 -0.051021934 -0.0430289
0.03496731 0.064403795 0.08488633 -0.13347916 -0.17069298 -0.21414173 0.009617231 -0.21541467
0.15954979 0.15139918 -0.13865905 -0.08809045 -0.027688723 -0.2539907 -0.036348283 0.22836499
0.20837413 -0.056642123 0.17917551 -0.08380684 0.010785161 0.1089252 -0.19771433 0.16360871
0.33658916 -0.16139849 -0.16562442 0.10522775 0.09247021 -0.14267777 -0.07205018 0.05695592
-0.14591889 -0.051803626 -0.063254625 -0.08890768 -0.19509512 0.51737624 -0.085005045 -0.29187778
-0.3465434 0.18838067 -0.07792922 0.15850905 0.0024740298 0.08327425 0.21405797 0.05337196
0.0109566795 0.19899727 0.19485585 -0.30458716 0.09677161 -0.16341992 0.084391 -0.18153226
-0.021339722 0.017260334 -0.44272748 0.11648694 0.1281862 0.15467961 0.054096017 0.12164616
-0.2482986 0.052801132 0.35403857 0.14758742 0.056648754 0.013513694 0.005830068 -0.002267339

sequential_86/simple_rnn_56/while/simple_rnn_cell/MatMul f4 [32, 110]
00000000: 91a5 923d 14f5 f3bc 6cd2 1c3e 0093 2bbd
00000010: de39 103e e793 b73d 3f25 26be dec7 2fbd
00000020: bb82 a1bd 51f2 3b3e 8644 41be 0156 043e
00000030: ec1e 2c3e c5f3 893c 4265 77bd 11a4 283d
00000040: b265 21bd 91fc bdbd 907d 33be b9ec 363d
00000050: 08d7 393d 2f34 493d 647d 9c3d 8e25 e3bd
00000060: 4788 263e c43d 1f3e 92e5 9dbd 3d61 98bc
00000070: 6d9d 2d3e e79c d53c 0862 673d f3b3 a83d
00000080: ac53 fabd c10f 1abc 855e aa3c d03e 2fbe
00000090: ef47 87bd 21a7 57bd 2b6c 2abe 3c27 d43d
000000a0: b3c9 d8bc fc22 9f3d dd05 0fbe e4e2 aabd
000000b0: 80d2 1cbe e269 fa3c 3eb2 56bd 8b79 e5bc
000000c0: 08e3 32be 98d4 9abd 9f5b 06be be44 4c3e
000000d0: c5d7 3dbe dd90 88bd a732 153e 22a7 673d
000000e0: 2a85 3cbe f55a aa3d 950c 3f3e 2db0 d9bd
000000f0: 3a87 003e df4a 3e3d a200 723c 0485 183e
00000100: caec 1f3e bf9c c53d d565 ea3d a16b 643d
00000110: 1b12 803d 4f76 143e 552b 40bc 6046 efbd
00000120: 09b2 8ebd ad91 59be 818e 40be cb4d 1a3e
00000130: 9993 553d cd56 be3d 02a6 9f3d 552e 163c
00000140: d387 b6bd d52d 9ebd cc8b cd3d c4b9 303c
00000150: bedd b7bd aa3e 0ebe 10ef 8a3d 6272 6b3d
00000160: 4ee0 263e 4c0b 1a3e d784 07be 17de a53d
00000170: 9de7 c13d e91a f8bd 46db 073e 3311 07bb
00000180: dd94 203d 1e76 53bc e4fd 08be 49bd 41be
00000190: 3e8a 213e b64e 0ebe 3e29 30bd aaff fcbd
000001a0: c2b8 2bbd 1d75 2a3e 8f95 71bd ac66 da3d
000001b0: 1a96 17bd 7e2d 2f3d c5f8 293e 0655 033c
000001c0: cc6c 8e3d 0b62 5d3d 5760 b53d d683 093e
000001d0: 4770 b4bc 61ad ea3d f6a9 9fbd a72e a03d
000001e0: d5f6 a03c 3921 ac3c dd7e 0e3e 0cda 2cbe
000001f0: 9566 a0bd 6c4a 75bd a97b 59bd be30 433e
00000200: e3f5 ac3c 0c75 d73d a3d1 d33d 04d7 bdbc
00000210: 0a52 2f3e 7b24 00bd b724 123d 1926 073e
00000220: 7267 943d 63ee fd3d 3813 75be ec15 2abe
00000230: 53a0 253d f0d4 55bd 8067 5abe 4bee c53d
00000240: 3713 bc3d 9bc6 febd a8d0 4abd 9c22 0bbd
00000250: ff99 9f3d d50a 293e d8c5 7dbd a6d1 1fbe
00000260: f2ad cbba 4fd3 05be 6132 073e ad75 06be
00000270: 88c2 913d 1e50 773d 7761 043e 1809 c2bd
00000280: fd18 42be 368e 91b9 df9b 373c 7954 4c3e
00000290: bf0b 31be 5ca8 fbbc b973 66bc b595 1e3c
000002a0: 27bd dabc cdf4 0a3d 4a65 06bb 2785 3a3e
000002b0: 917a 193e 7706 43bd e4b7 a7bd 3ecd 0bbe
000002c0: b4ec 2e3e 8c92 65be 48e7 44be 6f1c 9dbd
000002d0: cb6c 56bb bb38 11be bd72 473e f18c 0ebe
000002e0: 4f28 2a3e 11dd 55be 5748 1a3e 2b74 a0bc
000002f0: bf69 583e 765b f3bc c1b7 93bc 0ccc b6bd
00000300: 30ba f3bc ea36 643d 284c 3cbe e461 713d
00000310: aade 0fbd ba9c 073e 1792 57bd 075a 4a3e
00000320: 3b50 bb3d 37be d7bd 69fd a43d 942a 203e
00000330: 20e6 4d3e 4c6d 0d3d dc61 313e 0a52 57bd
00000340: 0bda d8bc 70d7 d3bc 5e0c 233e ff01 4d3e
00000350: fbc4 dabd b30b 58bd d839 763c 6da9 ee3c
00000360: 61d5 f83d b5ff 2f3e 310c 043b 38f3 50be
00000370: 2f33 bf3d 9770 25bd 64c3 e3bd 2de3 8f3d
00000380: 754d 9d3d e5c0 2abd 8e6d 09be d02f 0bbe
00000390: 09cb 143e b1cf 313e 2163 a63d 5ff7 813d
000003a0: 2b4e 3dbe a6ec 2c3e 3b21 c0bd ae31 ba3b
000003b0: 9c0e ecbb c204 ec39 eb46 4fbd 5e7f a33d
000003c0: 7e09 f53c 5e63 36be bb6c e3bd a456 0f3e
000003d0: 8baa e3bd af31 3e3e b617 243d 91ee 1fbe
000003e0: 433c cebc 25f5 273e d005 1b3e 04aa 7fbd
000003f0: 0b6c 10be 8547 193d 6c61 bcbc 89a5 f6bd
0.071604855 -0.029779948 0.15314645 -0.041888237 0.14084575 0.08963757 -0.16225146 -0.042915218
-0.07886263 0.18354155 -0.18873796 0.12923433 0.16808671 0.016839871 -0.0603993 0.04117209
-0.039403625 -0.09276689 -0.17528367 0.04465935 0.045371085 0.04912203 0.07641104 -0.11091147
0.16262923 0.15550905 -0.07709803 -0.018601054 0.16954584 0.026075793 0.056489974 0.082374476
-0.122229904 -0.00940317 0.020797024 -0.17113805 -0.06605517 -0.05264962 -0.16642825 0.10359046
-0.026463365 0.077703446 -0.1396708 -0.08344057 -0.15314674 0.030568067 -0.05241608 -0.028012058
-0.17469418 -0.0756008 -0.13120888 0.19948098 -0.18539341 -0.066682555 0.14570104 0.056555875
-0.18410173 0.0831813 0.18657143 -0.10629306 0.12551585 0.04645812 0.014770659 0.14894491
0.15617672 0.096490376 0.11445204 0.055766705 0.06253453 0.14498256 -0.011729081 -0.11683345
-0.06967551 -0.21246977 -0.18804361 0.15068738 0.052142713 0.092939 0.07795335 0.00916632
-0.08912625 -0.077235855 0.1003643 0.0107864775 -0.08977841 -0.13891092 0.06783879 0.05748213
0.16296503 0.15043372 -0.13234268 0.08099001 0.09468005 -0.12114508 0.1326724 -0.0020609617
0.039204467 -0.012906579 -0.13378102 -0.18919863 0.15775391 -0.13897213 -0.04300808 -0.123534516
-0.041924246 0.16646238 -0.05898052 0.10664114 -0.037008382 0.042767994 0.16598804 0.008015877
0.06954345 0.05404858 0.08856266 0.13429198 -0.022026194 0.11458851 -0.07796089 0.07821398
0.019648949 0.021011936 0.13915582 -0.16880053 -0.07832066 -0.059885427 -0.053096447 0.19061562
0.021113342 0.10520372 0.103427194 -0.023173817 0.17121139 -0.03128479 0.035679545 0.13198127
0.07246293 0.12398984 -0.23933113 -0.16609925 0.0404361 -0.052205026 -0.21328545 0.096645914
0.091833524 -0.12440225 -0.049515396 -0.033968553 0.07793044 0.16508038 -0.061956257 -0.15607318
-0.0015539511 -0.13068889 0.13202812 -0.13130827 0.07117182 0.06037914 0.12927805 -0.09474391
-0.18954845 -0.0002776251 0.011206596 0.19954099 -0.17289637 -0.030719928 -0.014065676 0.009679248
-0.026701523 0.033924866 -0.002050715 0.18214856 0.14988162 -0.047613587 -0.08189371 -0.13652512
0.17082483 -0.22419184 -0.19228852 -0.07671439 -0.0032718654 -0.14181797 0.19477363 -0.13920952
0.16616939 -0.20885111 0.15066658 -0.019586643 0.21134089 -0.029706698 -0.018031957 -0.089256376
-0.029751867 0.055716433 -0.18388426 0.058931246 -0.03512446 0.1324338 -0.052629557 0.19760905
0.09146162 -0.105343275 0.08056147 0.15641242 0.20107317 0.03452806 0.17322487 -0.052568473
-0.026471158 -0.025859565 0.15922686 0.20020293 -0.10682102 -0.052745532 0.015028439 0.029133523
0.12150074 0.17187388 0.0020148868 -0.2040528 0.09335934 -0.040390577 -0.11121252 0.07025752
0.076807894 -0.041687865 -0.13420698 -0.13592458 0.14530577 0.17364384 0.08124376 0.063460104
-0.1848685 0.16887149 -0.09381338 0.005682192 -0.00720389 0.00045016973 -0.050604742 0.07983278
0.029911753 -0.17811343 -0.11104723 0.13997895 -0.11116513 0.1857364 0.040061675 -0.1561835
-0.02517522 0.16402109 0.15138936 -0.062418 -0.14103715 0.037421722 -0.022995673 -0.12043292

sequential_86/simple_rnn_57/while/simple_rnn_cell/BiasAdd/ReadVariableOp f4 [32]
00000000: 7ebd 81ba 3be5 763c 61b0 8abc 94e8 87bc
00000010: 8df3 99bc 9572 ee3b 3dee 09bc 4acd 943c
00000020: c358 633c f85c c93b d41e 193b 421c 223c
00000030: 7d9f f23a 1cf4 b03b 0041 963a 5cca 70bb
00000040: 2cfb ae3c a0e6 4c3b 18ec bebb 1211 6639
00000050: ccea d13c 37cf c9bb c20e 253c 4ed0 b33b
00000060: 27a9 6abc 073c 35bb e082 aa3b 605f 3bbb
00000070: 26d6 b2bb 20f2 8e3b f0bd 093b a18e 58bb
-0.0009898392 0.015069301 -0.016929807 -0.016590394 -0.018792892 0.007276843 -0.008418617 0.018164296
0.013876143 0.006145116 0.0023364322 0.0098944325 0.0018510666 0.005400194 0.0011463463 -0.003674171
0.021360002 0.0031265393 -0.0058264844 0.00021940868 0.025624655 -0.006158735 0.010074319 0.0054874783
-0.014322556 -0.0027654187 0.00520359 -0.0028590783 -0.0054576574 0.0043623596 0.0021017753 -0.0033043998

sequential_86/simple_rnn_57/while/simple_rnn_cell/MatMul_11 f4 [32, 32]
00000000: 4ed9 b9be 48b9 563e 2e4c 7bbd b9cf 413e
00000010: 19c1 b13c 03f8 683c 6e0e 75bd 8599 443c
00000020: ba03 9b3d cb72 2cbd 124f b9ba b736 85be
00000030: 3264 4a3d 8b9d 063e 3a87 103d d024 2cbe
00000040: dde2 443e 5edf a23e 3c48 193e 34ba a8bd
00000050: e0f1 f9be 9dd0 103b 5a4e 83bd 5f4e b8bd
00000060: 5e93 4fbd ed34 4abe 8589 a1be 1c95 a83d
00000070: 162e 1c3e f7ba 03be abe4 70be 583a d0bd
00000080: 4299 283e 8f26 f9bd d3b4 15be fb1a 59be
00000090: 3d7b 45bd b098 803d fa39 6abe aca6 753e
000000a0: 268a 723e f096 09be 3d41 20be 1ee0 d13d
000000b0: eae0 afbc 9fce 9b3e cec5 02be a6e0 3d3e
000000c0: 21e0 4d3d 0550 523e 52dc 8abe 2d08 aabc
000000d0: 2257 1a3d 428f d7bd 7e46 983d 5b33 c6be
000000e0: 276f b23d d782 54be be5f f73d 02f6 78be
000000f0: 6860 503e ef41 843d 0758 b3bd 2345 68be
00000100: 3897 7bbd dc54 1f3e 1ace 053e c5e1 513e
00000110: f7de 9c3e 7ace d53d fc49 02be 173d a83b
00000120: 8d5b dc3b e2ec bc3e 1efb a4bd 4d44 ef3d
00000130: 0cde 95be 0743 3abd 6f2f c2be 788d 05bd
00000140: 7433 3e3e a4ee b63e 2097 d83c b24e 553e
00000150: 07e2 193e 35ef 3f3e 3354 6a3e fc10 2c3d
00000160: e86e b93d bd4b c73c c3c6 fb3d 5976 bcbd
00000170: a527 43bd 85d8 20be 448c 61be e9d5 61bb
00000180: 469e 7ebd 6d43 e8be 24ce e13d 4887 f7bc
00000190: e67b 713a 1694 963d 34cf 98be cdbf 26be
000001a0: c83c 4dbe 30db 16bd 7c92 0e3e 0ef8 a53e
000001b0: 366d 4e3d 1540 873d a035 68bc c1cf 0cbd
000001c0: 3f22 e13c 0740 403d 147c 063e 8abc 42bd
000001d0: d809 30be 8a47 213e d76c 23bd 9283 21bd
000001e0: 358a 443e f298 3b3e 4ec3 48bd bfc7 443e
000001f0: d75c 5cbe 33c7 4e3d 2a3d 87be 5000 bbbe
00000200: c58b 68be 4ec7 1fbe af29 113d b968 583e
00000210: cf2c 05bd 3e3e 7fbe d6a0 843e c5c7 283e
00000220: 335b 5b3e 558c 52be d13e 12bc bf2c 95bc
00000230: 6544 c1bd c5c4 d73d 8242 88bd 0699 36bd
00000240: db51 71bd 5f2b db3d 18d0 833a f781 48be
00000250: b8e9 1b3e 9792 c53e f661 9abd 2746 e33c
00000260: e2a5 da3e 60c1 c53b eb3a 06be 421e 99be
00000270: b5cd f5bd c978 733d eeb3 423c 13cf 263e
00000280: a36b 93bd 9022 77be 6f27 753e 1bed 943d
00000290: 0fe3 a33d 0d2a 10bd e31e 26be 80aa 7a3d
000002a0: d0f8 e73d 6036 5cbe fca4 e33c 6bfa 98be
000002b0: cb3b 3bbe f828 92be 06f8 e43d 740c d3bd
000002c0: ce16 eb3b e5d3 3ebc 671f 7dbc 7f70 073f
000002d0: 01b8 0bbd 0b67 553d 3f16 ca3d d9bb 37be
000002e0: 54da b13a 0bff 2ebe c187 e3b9 e7bf 7e3d
000002f0: 97e5 fdbc ee6b cc3e 86f4 ed3d 8d86 693d
00000300: b702 523d 0936 383e 61db cabd ed5e 6d3e
00000310: fd15 103c 5fdd 84be 7734 38be c322 39bd
00000320: 7a48 cc3d 1805 05bc 61cc b3bd 321d 3cbd
00000330: 7500 d33e 8cd9 62be b909 4b3e 20de a63e
00000340: d37b 583e c0f9 a7bd e8cb 9fbb f0cf c43d
00000350: 6713 fb3d a04c 8dbe 2cbf 533e 69f8 4fbe
00000360: 745b 343e 81bc 2e3e 9438 f4bd bad8 42bd
00000370: cc13 a5be cd25 93bd fb94 c4bd 940a 793d
00000380: cec5 adbc 391d 05bd 3a71 c9bd 365c e4bd
00000390: e47a 873e 2c5a c33c 0500 6b3e 1617 38be
000003a0: f2bc c5be bed7 a73d cacf cd3d 1cd1 123d
000003b0: 16ae 4bbe 6145 9b3e 3ac9 dd3e e291 063d
000003c0: 2bb4 b73d cdda 10be 306d 5cbe 7ab1 ab3d
000003d0: 0ca2 be3d b9eb 8a3c ac81 063e 4b38 a5be
000003e0: 097b ee3d 457b 9ebd 5af7 a4bd 989c 5a3d
000003f0: aec2 8a3c 3892 943c ffe0 debd 0bc1 8d3e
-0.36298603 0.20969117 -0.061351947 0.18926896 0.021698521 0.014219287 -0.059828214 0.0119994925
0.0756907 -0.042101663 -0.0014137945 -0.26018307 0.04941196 0.13146035 0.035285212 -0.16810918
0.19227166 0.3181104 0.14968961 -0.082386404 -0.48817348 0.0022097 -0.06411429 -0.08999323
-0.05067765 -0.19746752 -0.31550232 0.08231565 0.15251955 -0.1286429 -0.2352473 -0.10167378
0.16464713 -0.121655576 -0.1461976 -0.21201698 -0.048213232 0.06279123 -0.22873679 0.23989362
0.23685512 -0.13436484 -0.15649886 0.10247825 -0.021469552 0.30431077 -0.12770769 0.18542728
0.050262574 0.20538338 -0.27121216 -0.020755852 0.037680753 -0.10525371 0.0743532 -0.38711056
0.08712607 -0.20753036 0.12078808 -0.24312595 0.20349276 0.06457888 -0.08757024 -0.22682624
-0.06142351 0.15559715 0.13066903 0.2049628 0.3063886 0.10439773 -0.12723535 0.0051342356
0.006724781 0.36899477 -0.08055709 0.11682949 -0.2927097 -0.04547408 -0.37926814 -0.03260562
0.18574315 0.35728943 0.02643925 0.20830801 0.15027629 0.18743594 0.22883682 0.042008385
0.09054357 0.024328107 0.1229377 -0.092022605 -0.04764523 -0.15707596 -0.22026163 -0.0034459776
-0.06216266 -0.45363942 0.11025646 -0.030215874 0.0009211883 0.07352464 -0.29845583 -0.16284104
-0.20042717 -0.036830127 0.13923067 0.32415813 0.05039712 0.066040196 -0.014172941 -0.034377817
0.02748215 0.04693606 0.1313327 -0.047543086 -0.17191255 0.15749946 -0.03989872 -0.039432116
0.19193347 0.18320063 -0.049014382 0.19216822 -0.2151979 0.05048294 -0.26413852 -0.36523676
-0.22709568 -0.15603372 0.035440143 0.21133699 -0.032513436 -0.24926087 0.25903958 0.16482456
0.21421508 -0.20561345 -0.008926109 -0.018209813 -0.09436873 0.10535578 -0.0665331 -0.04457953
-0.058915954 0.10701632 0.0010056524 -0.19580828 0.15225875 0.38588402 -0.07538216 0.027743412
0.42704684 0.006035015 -0.13108413 -0.29905897 -0.12002126 0.05944136 0.011883719 0.1628993
-0.071982644 -0.24134278 0.23940824 0.07271787 0.08002292 -0.035196353 -0.1622272 0.061197758
0.11326754 -0.21505117 0.027788632 -0.29878554 -0.18284528 -0.28546882 0.11180119 -0.103051096
0.0071743494 -0.011647199 -0.015449381 0.5290603 -0.034111027 0.052100223 0.09867524 -0.17942752
0.0013569095 -0.17089479 -0.00043397959 0.06219473 -0.030993266 0.39926094 0.11618905 0.057013083
0.05127212 0.17989363 -0.099051245 0.23180743 0.008794305 -0.25950143 -0.17988764 -0.045199167
0.09974761 -0.00811889 -0.087792166 -0.04592628 0.41211286 -0.221533 0.19827928 0.32591343
0.21140985 -0.08201933 -0.0048766024 0.096099734 0.1225956 -0.27597523 0.20678395 -0.20309605
0.17613012 0.17064096 -0.11924854 -0.047569968 -0.32241666 -0.07184944 -0.09598728 0.060801104
-0.021212485 -0.032498572 -0.098360494 -0.111504 0.26460946 0.023846708 0.22949226 -0.17977557
-0.38620716 0.081954464 0.10049398 0.035843953 -0.19890627 0.3032637 0.43317586 0.03285397
0.08969911 -0.14145966 -0.21526027 0.0838346 0.09308252 0.016958104 0.13135403 -0.3226951
0.11644561 -0.077383555 -0.08054991 0.053371996 0.016938534 0.018136129 -0.10882758 0.27686343

sequential_86/simple_rnn_57/while/simple_rnn_cell/MatMul f4 [32, 32]
00000000: 2d8f 113d a10c acbd c614 61bd a0a0 283e
00000010: 4cac 6338 a84c 623d 7736 c4bd 56da 8fbe
00000020: 46e0 ce3d 4535 353e 0965 403d c628 1a3e
00000030: 0970 08be a7af 343e afdc 623e 5efe ab3d
00000040: b218 733e 05d9 40be e0cb fb3d f846 58be
00000050: 3fec a63d 71bf 5f3e 55ea 94be 0b8a 673d
00000060: 0ec2 c73c 751f 4fbe 325a 913d 4f9d 723e
00000070: 0d0c 13be 7ef4 2ebe 6ef4 81be 528f 7a3e
00000080: bd96 843e a71b 8d3e 9252 30be fb6f 1c3b
00000090: 60dc 993e e260 1abe c6b6 6fbe 77da 9bbc
000000a0: a90a 8cbe e5f7 903e f0bd ddbd c0a9 88be
000000b0: 149d 84be 8735 553e 19a5 72be 7c8a 7cbd
000000c0: 8660 2dbe 364a c2bd b0db 9e3c 6e14 9f3e
000000d0: 7012 a8bd 1956 943e 8c02 18be 8232 013e
000000e0: 3e50 fc3d fe83 b43d abe7 6c3e dfc2 3bbe
000000f0: 27c7 83be db07 bf3d a516 05be 7d01 393e
00000100: 4821 a2be c97a 79be 689b 0fbe 0e7a c2bd
00000110: 8e96 a73d 36fc e5bd a284 4bbe a1a8 943e
00000120: 9b19 2c3d 1f97 993e 287d 283e cf56 07be
00000130: fb3a 00be c679 ed3d b958 45be 2aff 7abe
00000140: 9df6 4dbe 05d5 0b3e 8e67 b5be 4b72 913d
00000150: 6fee aabd 3508 37be 8f67 66be 87be 4b3e
00000160: f92b 763e d3e9 0a3e d5c9 56be 53a1 8ebe
00000170: 5804 f23d 51f2 3b3e e51e fe3d a37c 55bc
00000180: 3f8c 9b3c 7803 3dbe 31d3 eebd c5da c7bc
00000190: b378 103e 9a2a 633e 5c8c b8bd c958 fcbd
000001a0: d7fc e5bd 5f52 91be bd6a 3c3e 7c6b 49be
000001b0: e0c1 43be 1f3b 76be 360c 07be 122a 57be
000001c0: fe02 a53d 038d 64be 831f eebd 5eaf a43e
000001d0: acfb eebd f6dc 05be a4a6 e0bc 6749 823d
000001e0: 1f75 71be 2982 373e 5ce0 343e 181d 793e
000001f0: f62a 103e 39ed 9f3e 2845 7ebe b5e6 41bd
00000200: 05cf 923e c559 c43d c7bd 7a3d d4ac 12be
00000210: 33be 62be 6dec 243e 3f72 4abd f20e 47be
00000220: 93be 20bc 7595 803c 0f50 6bbd 5ae9 f83d
00000230: 142b f43d d75c 943e b86c 00be f5b1 a2be
00000240: b329 8a3e a019 61be b107 7e3e e2bf 19be
00000250: 5c6b 4ebe e941 71bd da12 89bd ab78 03be
00000260: 36a3 3cbd 49ac ddbd bea3 873e 871b 7abc
00000270: cf52 993e ec8c 1fbe d933 853e 57d6 a4be
00000280: 5502 683e ceaa 04bd 0160 13be 81d6 943e
00000290: a1f8 893e 78e7 d83d 81f7 7b3e 15a9 93be
000002a0: 6dc9 4b3e 3f62 333e d831 49be 4cf1 8ebe
000002b0: 0782 20be f3c2 6b3e 6912 6abe 1cb3 c03d
000002c0: 5f70 89be 74d7 80be 0eed f8bd fdd3 7b3e
000002d0: b377 63be b595 e93d 25f0 13be 670a 9b3e
000002e0: 866c 1bbe 4ac9 533e 5c7c febc 1a47 483e
000002f0: 5fe6 2bbe 6d0b efbd f640 e13d 8b06 83bd
00000300: a72c 7f3d 1b04 03be f9cb 1d3e d864 b43d
00000310: 7fcf 4e3e 9fd0 88be 76e3 363e af4f 87be
00000320: a435 dfbd f5b5 c23d d507 2e3d 1200 ba3d
00000330: 426f 2f3d 97a5 34be 23bb 8a3e 98f6 af3e
00000340: 1950 4dbe 55b5 7bbe 013d ae3e 24e2 223e
00000350: c87b 703e e088 603e a33b 963d 7793 943e
00000360: 72c0 85be c9fc 743e 077d 723e 1f44 39be
00000370: 8d8b 04bd d54b a1be 0510 b23d 9553 c13d
00000380: ecad 79be 1b4d 423d d873 853e 5dad 9f3e
00000390: 7c63 d7bd 6399 9ebe c03e 5ebe 4768 333e
000003a0: 0a70 3a3d 1626 33bc 4b2e 02be 1bfd 9c3d
000003b0: bdb4 52be 8b27 a43e fa3c 74be 59a2 41be
000003c0: 68bf 373e 0d29 893d 5e67 ef3d 3316 403e
000003d0: 6451 49be f019 193e 97bd 293d 8cd1 34bd
000003e0: 05a9 dc3d e6c2 193e d6f1 ccba 7580 653e
000003f0: 9741 403e 1f89 023e b1e1 9abe 905c 65be
0.035536934 -0.08400846 -0.05495145 0.16467524 5.428148e-05 0.055248886 -0.09580701 -0.28096265
0.101013705 0.17696102 0.046971355 0.15054616 -0.13323988 0.17645131 0.22154497 0.08398126
0.2373989 -0.18832786 0.122947454 -0.21120822 0.08150529 0.21850373 -0.2908503 0.056528132
0.024384525 -0.20226844 0.070972815 0.23692821 -0.14360066 -0.17085454 -0.25381798 0.24468735
0.25896254 0.2756016 -0.17218998 0.0023870456 0.30050945 -0.1507602 -0.23409566 -0.01902507
-0.27351883 0.2831413 -0.10827243 -0.2669201 -0.2590109 0.208212 -0.23695792 -0.061655506
-0.16931352 -0.09486811 0.019391865 0.31070274 -0.08206642 0.28971937 -0.14844722 0.12616923
0.123199925 0.08814238 0.2313525 -0.18336056 -0.2573788 0.0932767 -0.1299692 0.18066974
-0.31666017 -0.24363245 -0.14024127 -0.09495936 0.08183013 -0.11229746 -0.19874814 0.29034904
0.042016607 0.2999811 0.16453993 -0.13216709 -0.125225 0.11595492 -0.19272126 -0.245114
-0.20113607 0.13655479 -0.35430568 0.07101878 -0.08346259 -0.17874224 -0.22500442 0.19896899
0.24040212 0.1356576 -0.2097543 -0.27857456 0.11817235 0.18354155 0.124082364 -0.013030204
0.018987773 -0.18458354 -0.11661375 -0.02439631 0.14108543 0.2218422 -0.090111464 -0.12321622
-0.11229866 -0.28383157 0.18400092 -0.19669908 -0.19116926 -0.2404599 -0.13188252 -0.21012142
0.08057211 -0.22319417 -0.11627104 0.32165045 -0.11669096 -0.13072571 -0.02742321 0.06361657
-0.23579834 0.17920746 0.17663711 0.24327505 0.14078888 0.31235674 -0.24831069 -0.04733916
0.28673568 0.09587435 0.061216142 -0.14323741 -0.22142868 0.16105814 -0.04942536 -0.19439295
-0.009811061 0.015696267 -0.057449397 0.12153883 0.11922279 0.2897708 -0.12541473 -0.31776395
0.2698494 -0.21982431 0.24807622 -0.15014604 -0.20158142 -0.058900747 -0.06693049 -0.12839
-0.046054088 -0.108238764 0.26492113 -0.015265352 0.2994599 -0.15581101 0.2601612 -0.32194778
0.2265714 -0.032389455 -0.14392091 0.29069903 0.269475 0.10591024 0.24606134 -0.28839937
0.19901057 0.17517947 -0.1964792 -0.2791847 -0.15674601 0.23023586 -0.22858585 0.094091624
-0.26843545 -0.25164378 -0.121545896 0.24592586 -0.2221363 0.114055075 -0.14447077 0.30281374
-0.15178117 0.20682254 -0.031065159 0.19558373 -0.16787098 -0.11672101 0.109987184 -0.06397732
0.062298443 -0.12794535 0.1540984 0.08808297 0.20196341 -0.26721665 0.17860207 -0.2642798
-0.10898903 0.09507362 0.042487938 0.09082045 0.042830713 -0.17641293 0.270959 0.34367824
-0.20050086 -0.24580891 0.34030917 0.15906578 0.23484719 0.21927214 0.073355936 0.29018757
-0.26123387 0.23924555 0.23680507 -0.18092392 -0.03235965 -0.31503168 0.08694462 0.0943977
-0.24382752 0.047436815 0.26064944 0.31186953 -0.10517022 -0.309764 -0.21703625 0.17520247
0.045517005 -0.010934373 -0.12712972 0.076654635 -0.20576759 0.3206142 -0.23851386 -0.18909587
0.1794411 0.06697283 0.116896376 0.18758468 -0.19659954 0.149513 0.041440573 -0.044145152
0.107744254 0.15015754 -0.0015636038 0.22412284 0.1877502 0.1274762 -0.30250314 -0.22398591
